digits_rec.pth (torch, 236068 bytes, 8 tensors)

cnn.0.weight f4 [5, 1, 3, 3]
00000000: a784 c1be 6e6a c23b 78bf a9bb ea16 483e
00000010: 014f 64be d06d f03c 6c67 91be 784c 38bd
00000020: 9874 ad3e c478 b13e b044 4cbe 73be 513e
00000030: f297 0ebc 6a2c e6bd 323a 883e edca ad3d
00000040: 70d8 823d a0ca 883e 466d 54be ee4b 01be
00000050: 1836 68be 8c74 e7bd b82a a6be 684b 8dbe
00000060: be11 38be 50cd 8dbd 1804 75bd 9003 dbbc
00000070: a7b7 a2be 8fb8 8abd b1ea 053c aafd e9bd
00000080: 4979 183e 5517 aa3e c2da 163e 2221 8c3e
00000090: 7912 1bbe 1125 4fbe 4b40 813e eb11 7bbe
000000a0: 4cfa cebd 8e80 bbbe 78ab af3e 0805 133e
000000b0: 6c00 fa3d
-0.37796518 0.0059330976 -0.0051802956 0.19539991 -0.22295763 0.029349238 -0.28399217 -0.0449948
0.33878016 0.3466245 -0.19948077 0.20482807 -0.008703219 -0.1123894 0.266069 0.08485971
0.063889384 0.2671709 -0.2074481 -0.12626621 -0.22676885 -0.113015264 -0.32454467 -0.27596593
-0.17975518 -0.06923926 -0.059818357 -0.026735097 -0.3178074 -0.06773483 0.008173631 -0.11425336
0.14890017 0.33220926 0.14731887 0.27369028 -0.15143766 -0.20228983 0.25244364 -0.24518554
-0.10106334 -0.36621517 0.34310508 0.14357388 0.12207112

cnn.0.bias f4 [5]
00000000: 03db 953e 5c47 4b3e 6066 27bd 6328 02bd
00000010: 949c 6d3e
0.29268655 0.1985144 -0.040869117 -0.031776797 0.23204261

cnn.2.weight f4 [10, 5, 3, 3]
00000000: 1218 ab3d 0470 0f3d f9b4 013e 900f 0bbe
00000010: b307 c1bd 0428 b7bd f75c f0bc fddb 263e
00000020: 0d70 de3d 673e 80be 75db eabd f284 e83d
00000030: c196 17be b396 e4bd e751 5dbd 3dfc 51bd
00000040: 475a a9bd 59c9 883d 2e05 ed3d 98e5 aebd
00000050: 58ef d73c 564c df3d e0a2 edbd 2c4c f9bc
00000060: a8bf b63c 009e 473b 4820 31bd 81db 9bbd
00000070: 1477 b73d 390f 133e 03d4 56bd b2e0 953d
00000080: 30d8 fbbd c59c 483c e630 453d 49b5 723d
00000090: 6033 bdbc 30cf e1bc e1f1 103e b42e 1f3d
000000a0: 13aa e53c e743 183e 4cad 643d be3d 293e
000000b0: 9983 003e 10ec 59bc 5807 603d 8f25 00bd
000000c0: 6c6f 323e b0c9 1c3e d7bc e73c c732 213e
000000d0: 1e77 953d 5ae6 c0bd b107 c33d e600 12be
000000e0: 0ff2 863d 55de 99bc c648 583d f160 b53d
000000f0: e313 69bd e72a e5bd 6e27 ecbd d060 94bc
00000100: 4964 e2bd 8203 fd3d b600 a63d 3cb9 18bd
00000110: c65b 9bbd 1a76 db3d 3cbc c7bd f639 7bbd
00000120: aeb6 953d 23f3 103d 61dc 343d 07df 123e
00000130: 88a8 b63d 60e6 55bd df5b 36bb f990 1d3e
00000140: 0aae c0bc fa55 21be af58 b6bb 3d44 813d
00000150: f933 ccbd c6b4 04be 0f0b 393c e51c bdba
00000160: bb26 00be a237 42bd 2b3d 0fbd 384f 90bd
00000170: 7fb6 b7bd c74e d03c d6de d73b e2ca 58bd
00000180: 468b 433c d9b2 e33c 9da1 89bd 3082 573d
00000190: c2da e3bc efcb 353e 37ee 8b3d 65ce 3f3d
000001a0: 3862 eb3c 7f4f 12be cb9b 29bd d821 573d
000001b0: 14e5 323d 8467 cebd 6ea4 9a3d eb82 82bd
000001c0: 6e05 31bd 88f0 dcbc b8b3 f3bc 847e 5bbd
000001d0: 8558 053e 9a0e 13bd a752 83bb a2f5 2c3e
000001e0: 2927 a73d 3c20 05be 8a5b a9bd 05c7 2cbe
000001f0: d673 00be 2f08 8f3d cb85 b13d d3d4 4abd
00000200: 5661 45bd 28f6 e1bd 7d63 b2bc 2532 973d
00000210: 2efa 353c cdee 43bc 3828 c7bd e672 08bd
00000220: 3512 f13d e795 1a3e 3609 7dbd 84dd 0a3d
00000230: 1a22 473d 61ec 613d 43f6 29be 11b4 183e
00000240: 07cd 313e 2435 e93c bd9c 81bd 0c25 e1bc
00000250: d98a 58bc 359f fb3d 61e8 0c3e d47a c7bd
00000260: 01d3 2fbe 0118 82bd 43ac 0a3e b857 b4bd
00000270: 47eb 05be eef2 ae3d 1c34 eabc 1668 c83d
00000280: 3b0b 1e3d 4aed 1cbd cbac 303d 0aa4 d93d
00000290: 0336 12bd 42cb 9bbd 92e8 403d 21bf bebd
000002a0: da20 2dbe d2f2 523d df2d e1bb 6d03 38bd
000002b0: 6587 a8bd 6c12 44be 6779 e6bd cc79 bd3d
000002c0: 217f 3f3d aa0b 89bd 0965 9ebc 495c d8bd
000002d0: 417d 0fbb ab6f b13d eb57 00be 9d4b 02be
000002e0: 4279 0fbc 16d3 b93d a1c0 ccbb 8b6d 36bd
000002f0: 33db dc3d b341 92bd e8f7 c2bd 7812 0a3e
00000300: 4b4c e73c fa30 1bbc d115 1ebc 03c8 f53d
00000310: 2e7d 7b3c 15de e9bd 5095 d2bd c095 e33b
00000320: 8ead d13d b0be b2bc 3c02 063d c0dc 353c
00000330: ac1b b4bd 2e46 08bd e63f 883d 2739 09bc
00000340: 624f a53d 38f5 71bd fd57 b0bd ba2f 60bd
00000350: 6c12 913d 1fbe 0f3e 2d3e fcbc 1804 b63b
00000360: d64f 2d3e c1ab 3f3d f8de 913d 5e81 183e
00000370: 946e ce3d c718 bc3d 5b3c ed3d ce92 2c3e
00000380: 035a 76bd 4fd1 81bc 536b ea3c 514c 783d
00000390: 5816 d23d cb2c 07bd ba82 2f3d bcf4 9d3d
000003a0: 3b49 31bd 81ce ca3d 600c 3fbd d464 ac3d
000003b0: 861f d23d 9095 c53d 012b a8bc 85d4 adbd
000003c0: 614f 1abe 673b ab3d 83bb a2bb 9ef0 f4bd
000003d0: 3cd6 193d a026 5b3c 10fb b83d 5da2 c9bd
000003e0: d813 d5bc 2627 89bd 2f8c afbd 41a0 013e
000003f0: 03cb 91bd 551d aa3d 295a 003e b387 0c3d
0.083542004 0.035018936 0.12666692 -0.13580155 -0.09425297 -0.08943179 -0.029341204 0.16294856
0.10861216 -0.2504761 -0.11467639 0.11353482 -0.14803602 -0.11161556 -0.054033186 -0.051265944
-0.08269172 0.06679029 0.115732536 -0.08539885 0.026359245 0.10903232 -0.116033316 -0.03043183
0.022308186 0.0030459166 -0.043243676 -0.076102264 0.08958259 0.14361276 -0.052448284 0.07318248
-0.12297094 0.012244408 0.048142336 0.05925492 -0.023095787 -0.027564615 0.1415477 0.0388629
0.0280352 0.14869653 0.05582933 0.16527459 0.125502 -0.013300911 0.054694504 -0.03128582
0.17425317 0.15311313 0.028288288 0.15742026 0.072981104 -0.09418936 0.095229514 -0.14258155
0.06589138 -0.018782774 0.052803777 0.08856381 -0.05690373 -0.111898236 -0.11530958 -0.01811257
-0.11054284 0.12354185 0.08105604 -0.03728603 -0.07585864 0.107158855 -0.097527 -0.061334573
0.07310234 0.035388123 0.044155482 0.1434289 0.089188635 -0.052221656 -0.0027825756 0.15387334
-0.023520488 -0.15755454 -0.005564771 0.063118435 -0.099708505 -0.12959585 0.0112941405 -0.0014428167
-0.12514775 -0.047416337 -0.034970444 -0.0704636 -0.08970355 0.025428189 0.0065878434 -0.05292786
0.011935061 0.027795242 -0.067202784 0.05261439 -0.027814273 0.17753576 0.06832545 0.046827693
0.028733358 -0.14288138 -0.04140834 0.05252251 0.043675497 -0.10078338 0.07550894 -0.06372627
-0.04321807 -0.026970163 -0.029748783 -0.05358745 0.13022049 -0.035902597 -0.0040076557 0.16890576
0.08161766 -0.13000578 -0.08269413 -0.16872795 -0.12544188 0.06983983 0.08668097 -0.04951937
-0.04818853 -0.11033279 -0.021775955 0.07382611 0.011107011 -0.01195879 -0.09724468 -0.0333127
0.11771051 0.15096246 -0.061776362 0.03390266 0.048616506 0.05515707 -0.16597848 0.1491244
0.17363368 0.028467722 -0.063287236 -0.027483486 -0.013216698 0.12286226 0.1376052 -0.097402245
-0.17170335 -0.06352235 0.13542275 -0.088057935 -0.13078032 0.08542429 -0.0285893 0.09785478
0.03858493 -0.038312234 0.04313354 0.10626991 -0.03569604 -0.07607128 0.047096796 -0.09313799
-0.16907063 0.051501103 -0.0068719233 -0.044925142 -0.082289495 -0.19147652 -0.112536244 0.092517465
0.0467521 -0.06691678 -0.019335287 -0.10564477 -0.0021894726 0.08663877 -0.12533538 -0.12724157
-0.008756937 0.090734646 -0.006248549 -0.044538062 0.107839964 -0.071414374 -0.095199406 0.13483608
0.028234622 -0.009472126 -0.009648756 0.1200104 0.015349669 -0.11419312 -0.10282385 0.006945342
0.10238181 -0.021819443 0.032716975 0.011099994 -0.087943405 -0.033270054 0.06652813 -0.008375443
0.08071782 -0.05907175 -0.086105324 -0.054733016 0.07083592 0.14037369 -0.030791366 0.005554687
0.16924986 0.046794657 0.07122606 0.148931 0.10079685 0.091844134 0.115837775 0.16852877
-0.060144436 -0.015846876 0.02861563 0.060619656 0.10258168 -0.033001702 0.04284928 0.07712695
-0.04328273 0.09902669 -0.04664266 0.08417669 0.10259919 0.096476674 -0.020528318 -0.084878005
-0.15069343 0.083609395 -0.004966201 -0.119599566 0.037557825 0.013375908 0.09032261 -0.098454215
-0.026010439 -0.0669692 -0.0857166 0.12658788 -0.071187995 0.08306376 0.12534393 0.0343091

cnn.2.bias f4 [10]
00000000: b426 063e b52f cc3c 9526 f43d b8cc c33d
00000010: a920 cabd 9973 c6bd f4dc b2ba eb21 1fbd
00000020: 1ec2 45bc 90bc 0bbe
0.13100702 0.024925092 0.119214214 0.095605314 -0.09869511 -0.09690017 -0.0013646171 -0.038850706
-0.012070207 -0.1364615

mlp.0.weight f4 [10, 5760]
00000000: 07cb af3b e6db 403b 4d6f 743b 5a45 85bc
00000010: d3e5 49bc 036e 99bc bc8b aabb e141 88bc
00000020: fbb4 18bc f5d9 133a aba4 8dbc c8d3 313c
00000030: d3fd 423b 9269 b8ba b1f7 ee3a e253 f23b
00000040: 8d89 4639 3069 10bc 9932 c9bc 2522 87bb
00000050: 5997 a03a 811d 8b3b 5815 82bc 7345 b5bb
00000060: 442a 4f3b 9ca0 05bc 81b6 f83b 1efc d6bb
00000070: 4b35 b0bb 1cb0 2cbc ce33 093c a721 8fb9
00000080: fe6d 2fbc 514f 2abc 5c09 eabb b07e 5c39
00000090: c7df 1bbc 39ed 973b bc69 773c cc9b 003c
000000a0: 73d0 88bb 5767 9c3c 05bd a8bb 8436 d63b
000000b0: a3a8 8c3c 8b05 1e3c 68de a8bb 2cc6 6fba
000000c0: 6a1c a73b 3111 1c3b 13fa 543c 6805 3e3c
000000d0: fb96 a1bb 661c 05bc 810e 2dbc e882 c33a
000000e0: a6e6 c0ba 7754 f23a 04f2 a93b 43c2 773c
000000f0: 7e4b 233b e170 843c 9bd2 483c 55e3 103b
00000100: 8372 3c3c 850c 1b3c ccbd 243b 1abc daba
00000110: 98b3 333c e8d2 b2bb b687 ca3a b4a1 473c
00000120: f323 213c 6a8f 67bc 5b8b 3dbb 8056 63bc
00000130: a264 2ebc 45fc 36bc f8e9 1d3b a83e d13b
00000140: b14b 18bc 0953 213c 583f 2bbb 60e8 ff3b
00000150: cc99 623c c1fc 893c 3f74 803b dcbb e3bb
00000160: a0bc b7b8 2fbc 2bbb 5450 493c 4433 84bb
00000170: 5e6b a1ba 49bb 19ba 0e69 e1bb 73f5 84ba
00000180: 489c 4dbc 9324 d23b c5b4 2abc d9d8 883b
00000190: 79e0 89bb bb40 68bc e39e 15ba 209a c6bc
000001a0: 2de8 27bc 898e 86bb 7f5c e03a 7d21 fd3b
000001b0: 097c c5bb 5130 9ab9 3caf 1fbc 509e 83bb
000001c0: 1197 bfba 67e1 3d3c c680 633c 3fcc 2e3c
000001d0: 39da 4a3c dcae 6c3c 701c 033d e93c 5d3c
000001e0: 5824 b0ba 1adb d73b 80f2 4d3b 3be8 df38
000001f0: 5bb0 4dbc 6c52 73bb 714c 87bc e80b 86bc
00000200: c54b b4bc b575 e8ba 87a1 82bc a7ce 82ba
00000210: 71c3 c2bc 9159 5bbc 31f4 323c 1848 113c
00000220: e4a1 c43c bbd2 733c 5c76 bc3c 4eb5 c73c
00000230: 0ba8 1b3d 9ded 393d 347d e83c 0370 003d
00000240: 94d2 f43b f4c5 7bbc 6800 5ab9 0696 993a
00000250: d1dc f2bb aef9 9bbc 9f44 62bc f49a e8bc
00000260: 5655 8cbc f065 99bc 6aa9 6dbc a307 99bc
00000270: 35c3 f1bc 9160 fabc e6c6 d2b9 2a3f f43b
00000280: 1cd5 ed3b 0080 813c a38a 783c e552 753d
00000290: 777c 453d 59fb ea3c 75ae 023d f762 363d
000002a0: a7e3 8f3b 4d1f 2bbc 74de 47bc a850 66bc
000002b0: f39c 06bc 5f6b 29bc a759 87bc 51b2 cfbc
000002c0: c91d d9bc 52f6 eebc 8723 39bc 368f 18bd
000002d0: 6103 8bbc ae95 86bb 99a3 39ba ea95 09bc
000002e0: 7047 263c c1bd ad3c 59cc 1e3d a81d 693d
000002f0: db36 933d 615c 803d 3b52 483d c1e6 043d
00000300: 094f db3b 58fe eabb d987 0bbc aa9c 2ebc
00000310: 8680 783a 0867 a7bc 2376 43bc ad3d 1bbc
00000320: d7b1 1dbc 88fd 76bb 4fcb 13bb 72b1 09bc
00000330: e498 08bc 8850 9e3c 0a8d 043c cd03 73bb
00000340: 7dd1 d03b 46ff 9a3c b93c 603c 4f7c 263d
00000350: 32b9 7b3d 7b52 063d 5392 0f3d 0e22 e13c
00000360: dec7 573c 5a5c c1bb 2a29 55bc 3004 73bc
00000370: d1c7 c63b a751 0cba 1fe9 c8ba 5fd2 73ba
00000380: 2955 9f3b 8a69 8bbb e790 d5bb 4a6d 6fbb
00000390: 83d5 1e39 40c6 b03c 2f58 c13b e51b 5a3c
000003a0: 9415 ca3c 7f86 c63c 92d0 3f3c 2044 b63a
000003b0: 90f1 123d 3b74 393d af77 fc3c bbd0 cd3c
000003c0: f911 32bc d21a 363b 01ca 2cbb f5d4 28bb
000003d0: 8e12 62bc 7160 e63b a16a 3b3b 8a29 6a3c
000003e0: 63c8 eabb bea3 a4bc c351 4939 07a9 e0bb
000003f0: 63d1 ac3b dccb 4c3c f602 e23c 835c 203d
0.005364779 0.0029427945 0.0037297786 -0.016268421 -0.012322861 -0.018729215 -0.005204646 -0.016632976
-0.009320493 0.0005640083 -0.017290434 0.010853715 0.0029753342 -0.0014069548 0.0018231777 0.0073952535
0.00018933993 -0.008814141 -0.02456026 -0.0041239434 0.0012252136 0.0042454605 -0.015879318 -0.0055319606
0.0031610886 -0.008155968 0.0075901155 -0.0065608164 -0.0053774468 -0.010540035 0.008374168 -0.00027300158
-0.0107073765 -0.010394887 -0.007142229 0.0002102803 -0.009513802 0.0046364334 0.015100893 0.007849645
-0.0041752397 0.019092245 -0.005149486 0.0065372605 0.017170256 0.009644876 -0.005153466 -0.00091466564
0.0050998228 0.0023813958 0.012999075 0.011597969 -0.0049313284 -0.0081244465 -0.01056254 0.0014916332
-0.0014717176 0.0018488307 0.005186321 0.015121999 0.0024916823 0.016167106 0.0122572435 0.0022108157
0.011501911 0.009463434 0.0025137542 -0.0016688139 0.010968111 -0.005457271 0.0015451822 0.012184549
0.009835231 -0.014133314 -0.0028922174 -0.013875604 -0.01064411 -0.011168544 0.0024095755 0.006385643
-0.00929539 0.009846457 -0.0026130285 0.0078096837 0.013830613 0.016844155 0.0039201076 -0.006949885
-8.761254e-05 -0.0026204695 0.012287218 -0.0040344317 -0.0012315323 -0.00058643945 -0.0068789786 -0.001014395
-0.012549467 0.0064130514 -0.010419075 0.004176241 -0.0042076674 -0.014175589 -0.0005707575 -0.024243414
-0.010248226 -0.004106347 0.001711741 0.0077249394 -0.006026749 -0.00029409167 -0.009746369 -0.004016675
-0.0014617165 0.011589385 0.013885682 0.010668813 0.01238113 0.014445987 0.032009542 0.013503292
-0.0013438566 0.0065873982 0.003142506 0.00010676725 -0.012554253 -0.0037127985 -0.016515942 -0.0163631
-0.022008786 -0.0017735275 -0.015946163 -0.00099798 -0.023774834 -0.0133880535 0.010922478 0.008867286
0.024002977 0.014881785 0.023005657 0.024378445 0.038002055 0.04539262 0.028380014 0.031356823
0.007471392 -0.01536702 -0.00020790251 0.0011717684 -0.0074115773 -0.019039955 -0.013810306 -0.0283942
-0.017130535 -0.018725365 -0.0145057235 -0.0186804 -0.029512027 -0.030563625 -0.00040202512 0.007453819
0.0072580706 0.015808105 0.015169772 0.059893508 0.048214402 0.028684305 0.031904656 0.044527974
0.004391152 -0.010444474 -0.012199033 -0.014057316 -0.008216131 -0.010340541 -0.016522242 -0.025353583
-0.02650346 -0.029170189 -0.011299974 -0.03724595 -0.016969385 -0.0041071987 -0.0007081568 -0.008397559
0.010148868 0.021208646 0.0387691 0.056913048 0.07188197 0.0626762 0.048906546 0.032446627
0.0066927713 -0.0071714334 -0.008516275 -0.010657469 0.00094796007 -0.020434871 -0.011930021 -0.009475154
-0.00962492 -0.0037687737 -0.0022551601 -0.008404123 -0.008337233 0.01932551 0.008090267 -0.0037081123
0.006372629 0.018920552 0.013686352 0.040645894 0.061455913 0.032793503 0.035051655 0.027482059
0.013170211 -0.0059009017 -0.013010303 -0.014832541 0.0060663004 -0.00053527433 -0.0015328265 -0.0009301062
0.004862447 -0.0042545246 -0.006517518 -0.0036533647 0.00015147594 0.021578908 0.005900405 0.013312315
0.024668492 0.024234055 0.011707442 0.0013905801 0.035874903 0.04527686 0.030818788 0.025123945
-0.010868543 0.0027786982 -0.002636552 -0.0025761698 -0.013798369 0.0070305397 0.0028597491 0.01429213
-0.0071650012 -0.02009761 0.00019199312 -0.006856087 0.0052739843 0.012499776 0.027589303 0.039150726

mlp.0.bias f4 [10]
00000000: c022 96bb 0f30 b1bc 9b46 f13a 5780 c43c
00000010: 3a27 3f3b 75f2 0c3c ef5c c93c 4309 83bb
00000020: 99db d23b 2ca6 a0bb
-0.0045817792 -0.021629361 0.0018407883 0.023986978 0.0029167668 0.008602728 0.024580447 -0.003998907
0.0064348695 -0.0049026217

mlp.2.weight f4 [10, 10]
00000000: 2b51 87bd b3bf 8dbc 003d 583d afe5 acbd
00000010: cd09 043d 890f dd3d cf47 9b3e 639d 543e
00000020: bc29 093e 9ba5 17be d3e6 2cbe cf14 5e3c
00000030: 420b 2dbd d99b 693e 002e 9fbe 4c15 46be
00000040: bc94 313e 36ae 253d 380b 233e bde0 38be
00000050: 771a 2a3e f726 42bd 0fab 9dbe 2972 893e
00000060: 6b14 72bd 1fa4 cf3d faaa a43d 311c 293d
00000070: 4e4a 12be 1a3a c4bd d437 173e 96a0 d13d
00000080: 6b8d 8cbc 6436 883e 0fd8 9d3e 2a67 993d
00000090: 8e02 97bd 5c03 38be 4530 0bbe 99f3 9fbd
000000a0: 3bb1 55be 0b1c 613e 0f2e 31be a004 a13e
000000b0: a62a 1c3e cb20 713e ee60 6dbe 8ffd 9fbe
000000c0: eb75 89bc 7df6 8ebe 315b b93e 475d 9f3d
000000d0: a782 73be 7fa1 d23c 89ac 92be 1ea8 47be
000000e0: e884 07bd 1752 29be 3839 413e 985a 95be
000000f0: 1039 a63e d3f9 1abe d7ef 8d3d b38d 94bc
00000100: 81fa f43d 158d 8a3e ed33 313e c8c5 1b3e
00000110: d921 b8bd b9b8 05bd bff9 55be e2f7 743e
00000120: ca91 86bc df27 433d f0d7 03bd fb19 103e
00000130: c2a1 943d 9646 94be 20a5 03be 27b2 21be
00000140: 3ec1 0e3e f8cd d83d 1d79 e7bd d30b bc3c
00000150: a384 8c3e 6a08 4f3d f7ca fd3d b660 0ebe
00000160: 54a6 003e 4181 bf3d b914 263e 831d 7a3e
00000170: 58f9 aebd d7c8 643d 404d 1ebe 33a9 103e
00000180: 7528 6cbe 542b 13bd 8029 29bd 0996 553c
-0.066072784 -0.017303323 0.05279255 -0.08442246 0.03223591 0.10793979 0.30328223 0.20763163
0.13394827 -0.14809267 -0.16884927 0.013554766 -0.042247064 0.22813357 -0.31089783 -0.19344062
0.17341894 0.040449344 0.15922248 -0.18054481 0.16611658 -0.04740044 -0.3079457 0.2684491
-0.059101503 0.101387255 0.08040424 0.04128665 -0.14286157 -0.095813945 0.1476739 0.102357075
-0.017157277 0.26603997 0.30828902 0.0749038 -0.07373534 -0.17970031 -0.13592632 -0.078101344
-0.2086839 0.21983354 -0.17302726 0.3144884 0.15250644 0.23547666 -0.23181507 -0.31248137
-0.01677986 -0.2792243 0.36202386 0.07781463 -0.23780309 0.025711773 -0.2864726 -0.19497725
-0.033085734 -0.16535221 0.18869483 -0.2917068 0.3246541 -0.15134363 0.069305114 -0.018133974
0.11961842 0.27060762 0.17304964 0.15212166 -0.08990831 -0.03264687 -0.20896052 0.23922685
-0.01642694 0.047645446 -0.032188356 0.14072411 0.07257415 -0.28960103 -0.12855959 -0.15790616
0.13940904 0.105861604 -0.113023974 0.022954857 0.27444944 0.050545134 0.12392228 -0.1390408
0.12563449 0.09350825 0.16218843 0.2442532 -0.08543652 0.0558556 -0.15459156 0.14127044
-0.23062308 -0.035929993 -0.041299343 0.013036259

mlp.2.bias f4 [10]
00000000: 132a bb3e 29e3 cbbd 912f 143d 8494 83be
00000010: c890 783e d6ed 42be a790 523e 29cd af3d
00000020: 0ffa 4f3e 179b 543e
0.36555538 -0.09955437 0.036178175 -0.25699246 0.2427398 -0.1903604 0.20562993 0.08584053
0.20310234 0.20762287
