digits_rec.pth (torch, 236068 bytes, 8 tensors)

cnn.0.weight f4 [5, 1, 3, 3]
0.14859416 -0.0455181 -0.23732731 0.092347115 -0.20075 0.23243119 -0.2770562 0.093733095
0.15231465 -0.40217543 -0.09163839 -0.23311861 0.0150229465 -0.026753929 -0.27577746 0.17283244
0.062004462 0.15512781 -0.06049029 -0.075061224 0.26286405 -0.22083825 -0.28252143 -0.08521236
-0.08316274 0.19930483 -0.24227801 0.22347362 -0.024593124 0.117147535 0.08814565 0.13366157
-0.21822244 -0.22390977 -0.21705003 0.061644554 -0.106763445 0.03607043 -0.14318985 0.21148486
-0.07773099 -0.057813227 0.26090798 0.13123494 -0.15407577
00000000: 1129 183e 3071 3abd ee05 73be 7c20 bd3d
00000010: 6891 4dbe 7102 6e3e 4fda 8dbe 23f7 bf3d
00000020: 5ff8 1b3e f0e9 cdbe e9ac bbbd a5b6 6ebe
00000030: ce22 763c 0e2b dbbc b432 8dbe fdfa 303e
00000040: 64f8 7d3d d3d9 1e3e abc4 77bd b3b9 99bd
00000050: 1e96 863e 6c23 62be a6a6 90be d183 aebd
00000060: 3a51 aabd 9116 4c3e ba17 78be 45d6 643e
00000070: 8577 c9bc 0ceb ef3d b585 b43d 94de 083e
00000080: b475 5fbe 9a48 65be 5d42 5ebe 007f 7c3d
00000090: cba6 dabd 96be 133d 5ca0 12be 7d8f 583e
000000a0: 6d31 9fbd 90cd 6cbd bb95 853e 7462 063e
000000b0: 0ac6 1dbe

cnn.0.bias f4 [5]
-0.008012301 -0.011834762 -0.0018896322 -0.07967617 -0.0916892
00000000: 0746 03bc 97e6 41bc 89ad f7ba 432d a3bd
00000010: 8cc7 bbbd

cnn.2.weight f4 [10, 5, 3, 3]
0.08143411 0.09275712 0.107004836 -0.1610301 0.04703317 0.06806328 0.08633418 0.0072943834
0.20104437 -0.38043103 -0.029067436 -0.032758266 -0.11155871 -0.09286346 0.030161003 -0.021847758
-0.19267176 -0.075858146 -0.15025526 -0.18661596 -0.32306007 -0.13889867 0.15459964 -0.011000285
-0.1196848 -0.15840368 -0.22878632 -0.17758043 -0.055785853 -0.14973865 0.0016290124 -0.12260644
-0.07358066 0.064522 -0.06896724 0.04023946 -0.1273468 -0.0021615021 -0.35426748 -0.06458364
-0.17105992 -0.11079789 -0.2086994 0.08697347 -0.1648076 -0.31337896 -0.12813352 -0.019269463
-0.03114294 -0.006465728 0.0733257 -0.047587693 -0.18307331 -0.11213968 -0.04922916 -0.008574853
0.08964704 0.06237131 -0.026641518 0.021257412 -0.080300294 0.052807793 -0.019406483 0.06845231
0.023800056 0.07189565 0.18907194 0.1551139 0.16102067 0.1481994 0.14346413 0.086733975
0.034073338 0.06056345 -0.009487581 -0.071065255 -0.070567004 -0.0973606 -0.067558035 -0.1012568
-0.07204035 0.088627905 0.10643166 -0.119100705 -0.1580762 0.11588227 -0.13403223 -0.083878644
0.16086017 -0.09359065 -0.24013862 -0.24216682 -0.15874654 -0.07049387 -0.06490323 -0.17193957
0.18513575 0.20847383 0.101039074 0.07316382 0.09200663 -0.073916934 -0.05039971 -0.082427375
-0.062126238 0.110917784 0.007885066 -0.031662416 0.15702242 0.16002567 0.03612284 0.0925835
0.10222399 0.06778167 0.049329054 -0.13667594 -0.43876526 -0.13311726 -0.10772394 -0.016345466
-0.09280916 0.058222715 -0.1337112 -0.11417072 -0.10014442 0.07795568 -0.15234901 0.011988842
-0.12959309 -0.09750932 0.004657685 -0.0033878963 0.065222666 0.034068014 -0.038350552 0.02638638
-0.10163936 -0.22404313 -0.115397155 -0.027941564 0.104103774 0.07630203 0.11059054 0.059503157
-0.40132907 -0.12931445 -0.15729539 -0.058703605 -0.09194704 -0.063974775 0.122880645 -0.05152766
0.005021095 -0.026147807 -0.0013609795 0.12016374 0.039867416 0.23612511 -0.10460754 0.06655675
0.32956037 -0.18392725 -0.12286785 -0.14345288 0.12186761 -0.10930119 -0.10775065 -0.0018140007
-0.09258698 0.018354196 0.12625894 -0.2897707 -0.16254006 0.07371175 -0.46529356 -0.049582377
0.07766768 -0.109969266 -0.19088425 -0.08202267 -0.07160111 -0.116994664 -0.22813642 -0.049666613
0.16868351 -0.033572543 -0.016578514 -0.0041715256 -0.16249435 -0.24632978 -0.20395368 -0.3375623
-0.53429896 0.009438036 -0.064796925 -0.35836017 -0.09642461 0.10814871 -0.12856731 -0.02110519
-0.012415278 -0.14369608 -0.29489046 -0.13639638 -0.066220626 -0.06469396 -0.01952432 -0.26516926
0.01244515 0.021002337 0.006631445 -0.015613314 0.09073144 -0.09581917 -0.001165791 -0.05128509
-0.06454919 -0.08603161 -0.04590516 0.060366582 0.08942694 -0.028003661 -0.021282556 0.073999226
0.15553337 -0.028904207 -0.0013373216 -0.15128814 0.025372783 -0.09653339 -0.022883188 0.036089122
-0.03331723 0.0371462 0.060687847 0.122298084 -0.22576594 -0.0632447 0.0058004395 -0.18665493
-0.07209974 -0.11048375 -0.006722373 0.045310125 0.017314948 -0.40483913 -0.19499086 -0.29415247
-0.2035539 -0.22090909 -0.11343093 -0.22418481 -0.015208411 0.030923977 -0.21479614 0.031413462
00000000: edc6 a63d 72f7 bd3d 5a25 db3d 13e5 24be
00000010: daa5 403d c364 8b3d f9cf b03d b905 ef3b
00000020: 93de 4d3e dbc7 c2be d51e eebc 882d 06bd
00000030: e578 e4bd 332f bebd 3514 f73c 12fa b2bc
00000040: bf4b 45be 845b 9bbd 84dc 19be 4118 3fbe
00000050: 2168 a5be 743b 0ebe 5e4f 1e3e 8a3a 34bc
00000060: 4e1d f5bd 9334 22be f646 6abe a5d7 35be
00000070: b57f 64bd 1755 19be 9684 d53a 1619 fbbd
00000080: 75b1 96bd 1c24 843d b23e 8dbd 22d2 243d
00000090: 3367 02be fda7 0dbb 8c62 b5be 6d44 84bd
000000a0: 552a 2fbe 01ea e2bd 4cb5 55be 261f b23d
000000b0: 53c3 28be 3573 a0be 6f35 03be feda 9dbc
000000c0: 7b1f ffbc 75de d3bb c92b 963d 50eb 42bd
000000d0: 9277 3bbe 7da9 e5bd 84a4 49bd 8a7d 0cbc
000000e0: de98 b73d 0f79 7f3d 503f dabc 0624 ae3c
000000f0: 7b74 a4bd fc4c 583d 58fa 9ebc ba30 8c3d
00000100: 56f8 c23c 073e 933d 139c 413e 2ed6 1e3e
00000110: 9ae2 243e 95c1 173e 43e8 123e 95a1 b13d
00000120: 7c90 0b3d 6111 783d cd71 1bbc a98a 91bd
00000130: 6f85 90bd ff64 c7bd de5b 8abd ba5f cfbd
00000140: e489 93bd 8c82 b53d d8f8 d93d 12eb f3bd
00000150: bade 21be af53 ed3d bf3f 09be 91c8 abbd
00000160: 87b8 243e 74ac bfbd e6e6 75be 94fa 77be
00000170: 748e 22be 175f 90bd fceb 84bd ed10 30be
00000180: 3a94 3d3e 2a7a 553e 93ed ce3d ead6 953d
00000190: f96d bc3d c361 97bd ed6f 4ebd afcf a8bd
000001a0: 1578 7ebd dd28 e33d 5d30 013c 73b0 01bd
000001b0: 7cca 203e c5dd 233e 8bf5 133d 6b9c bd3d
000001c0: d05a d13d 1ed1 8a3d 430d 4a3d c7f4 0bbe
000001d0: d7a5 e0be e44f 08be 5e9e dcbd ede6 85bc
000001e0: bb12 bebd f17a 6e3d 97eb 08be 57d2 e9bd
000001f0: 8518 cdbd 3aa7 9f3d 6101 1cbe d96c 443c
00000200: 0db4 04be f7b2 c7bd 7e9f 983b 7807 5ebb
00000210: 7693 853d e78a 0b3d 7815 1dbd 4028 d83c
00000220: 4c28 d0bd 906b 65be 5855 ecbd b5e5 e4bc
00000230: 5c34 d53d 3d44 9c3d 4b7d e23d 95b9 733d
00000240: 017b cdbe 026b 04be 0b12 21be 3173 70bd
00000250: bb4e bcbd 3505 83bd d9a8 fb3d ab0e 53bd
00000260: ff87 a43b ed33 d6bc e562 b2ba 6818 f63d
00000270: 044c 233d c8ca 713e 7a3c d6bd e84e 883d
00000280: 23bc a83e 6d57 3cbe 24a2 fbbd 50e5 12be
00000290: ba95 f93d 4dd9 dfbd 5fac dcbd c3c3 edba
000002a0: 3e9e bdbd 8a5b 963c 064a 013e d35c 94be
000002b0: e770 26be 30f6 963d f53a eebe e416 4bbd
000002c0: 3c10 9f3d 9137 e1bd 2977 43be 80fb a7bd
000002d0: 9aa3 92bd e69a efbd 989c 69be 386f 4bbd
000002e0: 5fbb 2c3e 5d83 09bd aacf 87bc 4bb1 88bb
000002f0: eb64 26be e03d 7cbe 3cd9 50be f7d4 acbe
00000300: d1c7 08bf fea1 1a3c 40b4 84bd fc7a b7be
00000310: 447a c5bd 127d dd3d 26a7 03be cbe4 acbc
00000320: 7369 4bbc 1125 13be e2fb 96be 7eab 0bbe
00000330: ae9e 87bd 447e 84bd 77f1 9fbc 44c4 87be
00000340: bee6 4b3c 180d ac3c 984c d93b fcce 7fbc
00000350: 68d1 b93d d73c c4bd 74cd 98ba 5110 52bd
00000360: 5e32 84bd 5731 b0bd 0d07 3cbd f342 773d
00000370: 7925 b73d ef67 e5bc c158 aebc e88c 973d
00000380: 2444 1f3e 84c8 ecbc 1149 afba 47eb 1abe
00000390: 95da cf3c 4cb3 c5bd 8675 bbbc 30d2 133d
000003a0: a677 08bd 9d26 183d d293 783d 6b77 fa3d
000003b0: 302f 67be 7086 81bd 9d11 be3b 7822 3fbe
000003c0: 07a9 93bd 4e45 e2bd 5a47 dcbb 1c97 393d
000003d0: 14d8 8d3c 1347 cfbe afab 47be 279b 96be
000003e0: 6f70 50be fe35 62be 7a4e e8bd b490 65be
000003f0: b32c 79bc 4854 fd3c 85f3 5bbe 67ab 003d

cnn.2.bias f4 [10]
-0.0029154082 -0.004936289 -0.0046796603 0.065436125 -0.10394732 0.14659746 0.19920132 -0.01198798
-0.003742362 -0.42985848
00000000: 6f10 3fbb 98c0 a1bb d657 99bb 6003 863d
00000010: 55e2 d4bd a51d 163e 6efb 4b3e 3c69 44bc
00000020: 6a42 75bb 6916 dcbe

mlp.0.weight f4 [10, 5760]
-0.012368985 -0.0060585607 -0.016641192 -0.0029078478 -0.0033138802 0.0071250866 0.0021410815 -0.0047589224
-0.007928196 -0.008330121 -0.013480915 0.0041202954 0.0056915586 -0.013133317 0.0030422786 0.005933564
-0.0051694224 -0.012234501 0.0009047174 -0.011636314 0.005443469 -0.0043546404 -0.009194795 -0.015044186
-0.004528897 0.005518988 0.0016889541 -0.009050833 -0.0038898338 -0.0024231183 0.0013359635 0.0010516169
0.0032118724 -0.008466984 0.0057727103 0.009364117 -0.014530613 0.0029674668 -0.0078577185 0.006903771
0.0046988623 -0.003930244 -0.0038695978 0.006312359 -0.015733078 -0.0044773193 -0.0032315892 0.0054419762
0.004247639 -0.013709396 -0.006177011 -0.017023958 -0.008003899 -0.00696881 0.0045881923 -4.8188853e-05
-0.007804337 -0.0006351252 -0.0054098023 -3.0835366e-07 -0.0079498505 -0.013307307 -0.0046097944 -0.0029861648
0.004606704 -0.008910156 -0.006719641 -0.004281241 0.012644323 0.0062718056 -0.010131404 -0.008985399
-0.0064669694 -0.00910559 0.0108544 0.013672564 0.008382768 0.0044464595 -0.0017161747 -0.012740915
-0.0016387387 -0.0019533017 0.0073534045 -0.015118447 -0.003371607 -0.008726634 -0.009507696 -0.0028384975
0.0024658511 0.004116654 -0.00986008 0.01185612 -0.009547977 -0.012330409 0.0032536492 0.0017046653
-0.012494003 0.014039688 -0.0042462726 -0.016466131 -0.02100138 -0.0051122564 -0.013613701 0.0021625576
0.0048767207 -0.0022215273 -0.014346243 0.0055855648 -0.014106808 -0.0039864844 -0.003003956 0.0032429586
0.0052717365 -0.005229893 0.009757475 -0.009927067 -0.009542113 -0.0054437076 -0.012764044 0.00933445
-0.0043530385 -0.00076099444 0.0030680369 -0.007757754 -0.00020119708 -0.013221579 0.004751195 -0.0014520079
0.0062282667 -0.010322222 -0.00034603023 -0.011681474 -0.006895707 -0.011757688 0.010206427 -0.002209457
-0.00080511655 0.0041816877 -0.002837096 -0.00155914 0.0033653718 -0.014940375 -0.007795915 0.011675894
-0.0056698755 -0.015774677 -0.008057382 0.005456141 0.010144514 -0.0058093155 0.002327003 -0.01165607
0.0056750625 0.0028482662 -0.006044242 0.005574774 -0.011185267 0.013191521 0.0073256376 -0.0104348855
-0.0076132887 -0.010978016 0.0055289147 -0.0004981552 -0.008391595 -0.00097567996 0.0056479555 -0.003371998
-0.002123457 -0.0053876415 -0.00096398254 -0.0078013903 0.008073368 -0.014036484 0.009545895 -0.0068560587
0.011983007 0.005591499 0.0034521737 -0.010424732 0.0050739823 -0.004136138 -0.0049518608 0.0018064936
0.012974886 -0.0030169042 -0.0047074086 -0.0015460167 -0.0114223715 0.0076939627 0.009002586 -0.0050108084
-0.005593669 0.0011915441 -0.0011303622 0.0058171353 -0.010862038 -0.012012455 -0.008793473 -0.011852786
-0.006811769 0.0048746336 -0.009897181 0.0038421717 0.008892622 -0.010843243 -0.0056932764 0.010856467
-0.010362939 -0.008172849 -0.011514581 -0.014455004 0.00651241 -0.0021935445 0.002247093 -0.01396435
0.012604581 0.009528149 -0.019082857 -0.00017691687 -0.011674803 0.0008407721 -0.016449913 -0.007872902
-0.0055646216 0.0065975226 -0.0037690978 0.0008419742 0.0074948403 -0.007649584 0.0067307125 -0.016754422
0.004753192 -0.0012545387 -0.002723265 -0.006628254 -0.0020779995 0.0071803587 -0.00010179539 0.010351903
0.0010821924 0.009913869 -0.0033565916 0.004072829 -0.003067849 0.0018908363 -0.0070383013 -0.010086894
-0.003458569 -0.017354153 -0.0022072932 -0.0014854728 0.000180375 0.0018123126 -0.014705674 -0.003001713
00000000: 49a7 4abc e486 c6bb 1c53 88bc 9791 3ebb
00000010: af2d 59bb 8f79 e93b 6351 0c3b bcf0 9bbb
00000020: 44e5 01bc 0f7b 08bc 0edf 5cbc 8b03 873b
00000030: 4180 ba3b 202d 57bc f760 473b 586e c23b
00000040: 4264 a9bb 3773 48bc 8f2a 6d3a 3da6 3ebc
00000050: 215f b23b 5fb1 8ebb c4a5 16bc e47b 76bc
00000060: 2467 94bb a0d8 b43b e55f dd3a f249 14bc
00000070: 95ec 7ebb 2ecd 1ebb 7f1b af3a 68d6 893a
00000080: 477e 523b 1bb9 0abc 0129 bd3b f46b 193c
00000090: cf11 6ebc d579 423b a9bd 00bc 0739 e23b
000000a0: eaf8 993b 47c9 80bb 1499 7dbb e8d7 ce3b
000000b0: a8e2 80bc 7ab6 92bb 12c9 53bb 9b52 b23b
000000c0: c72f 8b3b 609d 60bc 8668 cabb d475 8bbc
000000d0: c922 03bc 9e5a e4bb 8c58 963b 631e 4ab8
000000e0: 86bb ffbb 887e 26ba b644 b1bb ce8b a5b4
000000f0: 1740 02bc e406 5abc c20d 97bb 88b3 43bb
00000100: d6f3 963b e7fb 11bc 6f30 dcbb a749 8cbb
00000110: 222a 4f3c b883 cd3b 30fe 25bc 7f37 13bc
00000120: dfe8 d3bb 9d2f 15bc a7d6 313c e402 603c
00000130: e157 093c 9bb3 913b 44f1 e0ba 45bf 50bc
00000140: f2ca d6ba f702 00bb d4f4 f03b 5db3 77bc
00000150: 2ef6 5cbb 28fa 0ebc 2bc6 1bbc 1606 3abb
00000160: 1e9a 213b ffe4 863b 2c8c 21bc 2c40 423c
00000170: 1e6f 1cbc 7c05 4abc 2d3b 553b 136f df3a
00000180: a6b3 4cbc b806 663c 5124 8bbb fbe3 86bc
00000190: 160b acbc b784 a7bb 000c 5fbc b2b9 0d3b
000001a0: e6cc 9f3b 0b97 11bb 810c 6bbc 1d07 b73b
000001b0: 3e20 67bc 0ea1 82bb 05de 44bb d187 543b
000001c0: 88be ac3b 865f abbb d1dd 1f3c 23a5 22bc
000001d0: 8656 1cbc 2161 b2bb 4820 51bc 85ef 183c
000001e0: efa3 8ebb 797d 47ba 1e11 493b c234 febb
000001f0: 6ef8 52b9 529f 58bc eaaf 9b3b 4d51 beba
00000200: 7d16 cc3b 891e 29bc 646b b5b9 a763 3fbc
00000210: 62f5 e1bb 51a3 40bc dc38 273c 8acc 10bb
00000220: 750e 53ba 8a06 893b 93ee 39bb 0f5c ccba
00000230: 928d 5c3b 7ac8 74bc e074 ffbb 404c 3f3c
00000240: 5dca b9bb e539 81bc 1c03 04bc 6ec9 b23b
00000250: 2d35 263c 125c bebb a280 183b 1af9 3ebc
00000260: e0f5 b93b faa9 3a3b c70e c6bb 98ac b63b
00000270: 6942 37bc 4021 583c e70b f03b 15f7 2abc
00000280: e578 f9bb 23dd 33bc e62b b53b a196 02ba
00000290: e77c 09bc c6c4 7fba 7c12 b93b bdfc 5cbb
000002a0: b229 0bbb d08a b0bb c6b3 7cba cea2 ffbb
000002b0: 2946 043c 48f9 65bc 6366 1c3c caa8 e0bb
000002c0: 6054 443c e538 b73b dd3d 623b 7fcc 2abc
000002d0: a643 a63b 7188 87bb 3843 a2bb dec7 ec3a
000002e0: 9e94 543c 41b7 45bb 9b40 9abb b6a3 caba
000002f0: e624 3bbc a31d fc3b 957f 133c b531 a4bb
00000300: 194b b7bb 962d 9c3a a928 94ba ab9d be3b
00000310: b0f6 31bc e3cf 44bc 8012 10bc 3032 42bc
00000320: 4335 dfbb 64bb 9f3b c927 22bc f2cc 7b3b
00000330: 5cb2 113c dca7 31bc aa8e babb 53df 313c
00000340: 51c9 29bc 6ae7 05bc a7a7 3cbc aed4 6cbc
00000350: 0e66 d53b 92c1 0fbb f743 133b bbca 64bc
00000360: 7283 4e3c f41b 1c3c a753 9cbc c382 39b9
00000370: ac47 3fbc 4367 5c3a f8c1 86bc 58fd 00bc
00000380: 6e57 b6bb 0830 d83b f802 77bb efb7 5c3a
00000390: 4797 f53b 5da9 fabb 4f8d dc3b 9240 89bc
000003a0: aac0 9b3b 556f a4ba ce78 32bb d331 d9bb
000003b0: 0c2f 08bb 3749 eb3b fc7a d5b8 079b 293c
000003c0: 5ad8 8d3a c86d 223c 43fa 5bbb 5e75 853b
000003d0: f70d 49bb f0d5 f73a 8da1 e6bb 8043 25bc
000003e0: 29a9 62bb 4c2a 8ebc 3ca8 10bb 32b4 c2ba
000003f0: 0c23 3d39 1f8b ed3a 11f0 70bc 63b8 44bb

mlp.0.bias f4 [10]
-0.003070622 -0.0001920787 -0.009321472 0.0022617013 -0.014487445 -0.0030878934 -0.015922198 0.0042170687
-0.00082060014 0.20340689
00000000: 7d3c 49bb bc68 49b9 16b9 18bc 0d39 143b
00000010: c05c 6dbc 415e 4abb 456f 82bc 562f 8a3b
00000020: 8b1d 57ba e549 503e

mlp.2.weight f4 [10, 10]
0.059270732 0.010749822 -0.09228957 0.13713281 0.047554035 -0.2290249 -0.085791014 -0.05779634
-0.15324508 -0.39162326 -0.05835677 -0.24810043 0.13168143 -0.3730066 -0.04729438 0.061898675
-0.19100724 -0.101242214 -0.03961687 0.14499415 -0.16197194 0.22383377 0.06590069 -0.11978647
0.13225064 0.0037455468 -0.27465206 0.13296156 0.2199171 0.08488999 -0.0684599 0.056528483
-0.1762745 0.08645634 -0.2494362 -0.14764206 -0.12733325 0.03404812 0.2636504 -0.07396762
-0.2813677 -0.044365 0.21952651 -0.22953972 0.14383082 0.27120668 -0.22810563 -0.14832342
0.24418321 -0.043399807 -0.04639099 -0.2611258 -0.018444682 0.1819581 -0.25039533 0.04296949
-0.15572208 -0.09692516 0.184802 -0.23803318 -0.061797515 0.023508875 -0.019869773 0.20690334
0.06790448 -0.037356574 0.24697569 0.17745115 0.18744472 -0.440139 -0.27179083 -0.12883332
0.23583755 -0.27569187 -0.05174397 0.053931158 0.093852416 -0.122538514 -0.08111736 0.08145999
0.18729112 -0.27442005 -0.21546765 0.013737733 -0.022883598 0.009904744 0.16153082 0.2460749
-0.12611866 0.008500671 0.16651526 -0.09165252 -0.13637921 0.023294022 -0.24247837 -0.28042582
-0.25431296 -0.02512416 -0.054632306 -0.069398485
00000000: dec5 723d 0520 303c 5002 bdbd 8b6c 0c3e
00000010: 05c8 423d 8185 6abe 33b3 afbd dbbb 6cbd
00000020: 47ec 1cbe d882 c8be 8207 6fbd 0a0e 7ebe
00000030: 7fd7 063e b9fa bebe c0b7 41bd 7789 7d3d
00000040: 6797 43be 1458 cfbd 4d45 22bd 5979 143e
00000050: f9db 25be ae34 653e f1f6 863d 9c52 f5bd
00000060: b66c 073e d977 753b 329f 8cbe 1327 083e
00000070: f331 613e ceda ad3d b434 8cbd 698a 673d
00000080: 4d81 34be 0610 b13d 346c 7fbe 7b2f 17be
00000090: a663 02be 0b76 0b3d 2ffd 863e 567c 97bd
000000a0: 6d0f 90be 13b8 35bd 8fcb 603e 760c 6bbe
000000b0: 6348 133e 9adb 8a3e 8694 69be 18e2 17be
000000c0: 2a0b 7a3e ffc3 31bd 7b04 3ebd 48b2 85be
000000d0: 4d19 97bc 3953 3a3e d133 80be c700 303d
000000e0: 9c75 1fbe b380 c6bd bc3c 3d3e f8be 73be
000000f0: 641f 7dbd af95 c03c efc5 a2bc 78de 533e
00000100: 8111 8b3d 3503 19bd 32e7 7c3e c1b5 353e
00000110: 82f1 3f3e e659 e1be 2b28 8bbe e2ec 03be
00000120: 667f 713e 7c27 8dbe 7cf1 53bd ebe6 5c3d
00000130: b235 c03d 79f5 fabd dc20 a6bd 7fd4 a63d
00000140: 3ec9 3f3e c980 8cbe 8da3 5cbe 3a14 613c
00000150: 6276 bbbc 8247 223c 5668 253e 0ffb 7b3e
00000160: 4025 01be 6646 0b3c fa82 2a3e 51b4 bbbd
00000170: fea6 0bbe 1bd3 be3c 404c 78be f993 8fbe
00000180: 4f35 82be 2fd1 cdbc 20c6 5fbd cb20 8ebd

mlp.2.bias f4 [10]
2.7699642 -3.343281 -1.7690965 -1.6154411 4.212444 -2.496915 -1.4650075 1.2194124
-1.9511842 2.3618658
00000000: 1847 3140 51f8 55c0 c171 e2bf c6c6 cebf
00000010: 57cc 8640 75cd 1fc0 5e85 bbbf b515 9c3f
00000020: 67c0 f9bf cf28 1740
