mnst_model1.pth (torch, 236080 bytes, 8 tensors)

cnn.0.weight f4 [5, 1, 3, 3]
000000 06 ad 93 3e 62 39 c8 bd a8 d6 8a be 1d ed ab 3e
       0.28842944 -0.0977657 -0.27116895 0.3357934
000010 51 a4 29 3e 8d e6 77 3e c1 7a f3 bd 55 f7 80 3e
       0.16566588 0.24209042 -0.11888648 0.251887
000020 fe 3a 37 bb 9c 38 49 bd 30 d4 7d 3e ac a7 f3 3e
       -0.0027958746 -0.049126253 0.24787974 0.4758886
000030 8e 2d f4 3e 9f 70 15 3f a4 77 1f 3f 52 26 d4 bd
       0.47691005 0.5837497 0.6229193 -0.103588715
000040 40 31 2d bd 19 4a 0d 3f fe 6c 23 3e c2 00 5d 3e
       -0.042283297 0.5519119 0.15959546 0.2158232
000050 88 41 b1 3e f7 9a be 3d 57 71 89 be d4 12 de 3c
       0.3462031 0.09306901 -0.26844284 0.027108587
000060 e9 e0 a4 3e 4e 09 cc bd db d9 b4 3e cc 91 9c be
       0.32202843 -0.09962712 0.3532246 -0.30579984
000070 b5 f5 b2 bd f1 10 17 3e 26 d9 7b 3e 4e 7d be be
       -0.08738271 0.14752556 0.24594554 -0.37204975
000080 51 ed 9d bc 13 5a b2 be 9d dd dd 3d d5 9b 8a 3d
       -0.0192782 -0.34834346 0.10833285 0.06768004
000090 6d dd 92 3e 81 67 f6 3e d0 03 a8 3e 80 49 e8 3d
       0.2868456 0.48125842 0.3281541 0.11342144
0000a0 25 e0 05 3f 30 6d eb 3e aa 5d cc 3e d3 93 c7 bd
       0.5229514 0.4598174 0.3991521 -0.09744992
0000b0 75 31 da bd
       -0.106539644

cnn.0.bias f4 [5]
000000 8c ff 02 3e f0 bc c9 3d 76 94 20 be 45 41 a3 3e
       0.12792796 0.0985049 -0.15681633 0.31885734
000010 09 32 33 3e
       0.17499556

cnn.2.weight f4 [10, 5, 3, 3]
000000 f2 fd 23 3e c2 a1 bd 3d 4b 2a 13 3c 10 9f 1c 3e
       0.16014841 0.092593685 0.008982251 0.15295053
000010 d1 0b 8e bd 9c 0f 40 bd c4 7e c7 bd b0 e3 e9 3d
       -0.069358476 -0.046889886 -0.097409755 0.11420381
000020 d5 60 c6 bd 19 19 9e 3e 5b 8e 66 3e b1 4a a7 3d
       -0.09686438 0.30878523 0.22515242 0.08168543
000030 4c 7d 54 3e dd 48 a8 3e 2c 30 96 3e 96 57 72 3e
       0.20750922 0.3286809 0.29333627 0.23666224
000040 4a cb 01 3e 92 42 91 3d 31 bb 1e 3e 8e 0e 2c bd
       0.12675205 0.070927754 0.15501095 -0.042006068
000050 55 17 be bd 79 4d d3 3d 55 96 92 bd 14 ee 39 3e
       -0.09281794 0.10317511 -0.0715758 0.18157226
000060 97 f9 81 3d 40 f9 a7 3d c6 7b d1 3d 39 fe 56 3d
       0.063464336 0.082018375 0.10228686 0.05248854
000070 dc ca df bd 3d ab 06 be e5 f7 ed bd 58 6a 10 be
       -0.10927364 -0.1315126 -0.11619548 -0.14103067
000080 a7 c9 7f 3d c8 7c 72 3d 5c a7 fd bc 02 42 4f bd
       0.06244817 0.059201032 -0.030963592 -0.05060006
000090 0f a7 48 bb 55 fd 6d 3e 4f db 7b 3e 93 28 81 3e
       -0.0030617153 0.2324117 0.24595378 0.25226268
0000a0 87 2a 1d 3e be 98 90 3e b5 54 31 3e c9 27 05 3e
       0.15348254 0.28241533 0.1731747 0.13003458
0000b0 4d c0 19 3e e0 72 52 3d 2b 46 b0 bd cd f4 fb bd
       0.15014763 0.051379085 -0.086071335 -0.123025514
0000c0 e3 ec 60 3c ff 78 07 3e 59 ec 15 3e 0b 55 80 bd
       0.013728353 0.1322975 0.1464094 -0.06266221
0000d0 0d d1 a3 bd 34 50 cc bc f6 05 d9 bd d7 3c e4 bd
       -0.07998858 -0.024940588 -0.1059684 -0.11144417
0000e0 9d d0 cc 3d 75 b4 1b be a3 c2 87 bd 84 be 82 3c
       0.10000727 -0.15205558 -0.06628921 0.015959986
0000f0 e4 4f cb bd 5c c7 51 3d dd 69 a9 3d 52 f7 92 bc
       -0.09927347 0.051215515 0.08272145 -0.017940197
000100 dd d0 a4 3c 60 dd 18 3e 47 21 a2 3d ff b3 84 bd
       0.020119125 0.14928198 0.079165034 -0.06479644
000110 e7 6d 7b 3b 46 25 83 3d a6 08 f8 3c 8c b5 78 bd
       0.0038365067 0.06403594 0.030277561 -0.06072001
000120 2b c3 c3 bc 39 5c 0e 3e 58 b4 c6 3d 55 8f ce 3d
       -0.023896774 0.13902368 0.097023666 0.10085932
000130 05 5b 37 3d 6c ed c6 bd 40 81 95 3d 1b 10 d3 3d
       0.044764537 -0.097132534 0.07300043 0.10305806
000140 fe 1a c3 bd 83 68 08 be b2 62 ae bd b2 2e b6 3d
       -0.09526633 -0.13321118 -0.085149184 0.08895625
000150 ed 01 21 3c 15 dd f8 3d 25 76 0b 3e 3f c3 f2 3d
       0.009827119 0.12151543 0.13619287 0.118536465
000160 c3 9a a7 bd b8 26 6f bd 96 22 b4 3d 31 b5 d5 3d
       -0.08183815 -0.058386534 0.08795659 0.1043495
000170 34 06 ab 3d 4a d3 2b 3d 42 5c d8 bc 29 79 04 3e
       0.083507925 0.041949548 -0.02641118 0.12936844
000180 83 0a 11 3e ba 61 7a 3d 86 d0 eb 3d ac 17 2d 3e
       0.14164166 0.061128356 0.11514382 0.16903561
000190 7f 7c ba 39 e8 86 72 3d 37 4f 53 bd bb 88 4d 3e
       0.0003556944 0.059210688 -0.051589217 0.2007169
0001a0 5a d2 b0 3d 91 2a 29 3e f0 ef 62 3e 15 87 32 3d
       0.086338714 0.16520144 0.22161841 0.043585856
0001b0 7e 2c b6 ba 47 94 af 3d 34 cf fd 3d 23 94 fd 3d
       -0.0013898758 0.085732035 0.123930365 0.123817705
0001c0 a0 20 87 3d cf 6d d5 3d 4c 7c fc 3b e8 7f 72 bd
       0.065980196 0.10421335 0.007705247 -0.059204012
0001d0 05 6f fd 3d 1b 7d 84 bd ad 30 09 be 70 d8 02 3e
       0.12374691 -0.064691745 -0.13397475 0.12777877
0001e0 68 2a de bd 1e ca b6 3d 2e 6a 08 3e 8c 10 89 3d
       -0.10847932 0.089252695 0.13321754 0.06692609
0001f0 60 b4 d3 3d 2d 04 0c 3e b7 57 1a 3e 79 dc 9f 3d
       0.10337138 0.13673468 0.15072523 0.07805724
000200 bb 78 99 3b bd 78 11 3d a9 07 22 3e f1 93 d2 bc
       0.0046835816 0.035515536 0.15823235 -0.02570531
000210 e9 65 1a 3e 32 42 0b 3e b9 fa c8 3c 8f 73 da 3d
       0.15077938 0.1359947 0.024533616 0.10666572
000220 9a 02 cb 3d f2 f5 19 bd 40 e6 cc 3c f8 3f ea bd
       0.099126056 -0.037588067 0.025012136 -0.11437982
000230 1f 6d 0e 3e bf 86 f7 bd 21 b2 ea bd af 41 0f 3e
       0.13908814 -0.12086248 -0.11459757 0.139899
000240 a2 b3 34 bc fa b7 01 bd 2c ee 05 be 6c 47 c7 bd
       -0.011029156 -0.031669594 -0.13079137 -0.097304195
000250 bf 4c 2d bd 0a c2 51 3b 28 21 8b bc 9f 1f e2 bd
       -0.04230952 0.0032006525 -0.016983584 -0.110411875
000260 0c d5 23 be 67 ef 8d bd 65 2d 82 3d 7c b5 11 be
       -0.1599924 -0.06930428 0.063563146 -0.14229387
000270 43 a0 17 bc c0 61 02 3e c1 07 00 3d 41 f9 0f be
       -0.009254518 0.12732601 0.031257395 -0.14059927
000280 ca 17 de 3d 67 f2 58 3d 97 11 d7 3b 45 09 27 3e
       0.10844381 0.052965548 0.006563376 0.1631213
000290 6d c8 c5 3d ef 44 f1 bc d4 39 5b 3d 63 77 af 3d
       0.09657369 -0.029451815 0.053521946 0.08567693
0002a0 a3 47 f6 3c a9 36 25 3d 24 ac 53 3d 85 74 41 bd
       0.030063456 0.04033533 0.051677838 -0.047230262
0002b0 31 61 20 3e 03 86 3d 3d 9e ad 68 3d d5 e3 16 3e
       0.15662076 0.04627038 0.0568062 0.14735349
0002c0 15 a7 96 bd f5 25 4e 3d 95 6b f2 3d b8 07 cf bc
       -0.07356087 0.050329167 0.11836926 -0.025272235
0002d0 ac a6 97 3b b6 bd 88 3c f4 e4 e5 3d fd 7d 6d bd
       0.004628023 0.016692024 0.1122531 -0.05798148
0002e0 e8 55 25 bd 8c e3 b4 3d fb 89 8c 3d 89 3c 84 3d
       -0.04036513 0.088324636 0.06862255 0.06456859
0002f0 c4 bb 89 bd ba 4a 66 3e 9d 3d 74 3e 1b a5 93 bc
       -0.067252666 0.22489443 0.23851629 -0.018023064
000300 1f 1c 46 3e b6 4a 58 3c 54 c5 1d 3d 51 a9 35 3e
       0.19346665 0.013201406 0.038518265 0.1774037
000310 6a 06 fe 3d 5c c6 10 3e 1b 57 73 3d f5 0a 2a 3e
       0.12403567 0.14138168 0.059409242 0.16605742
000320 b7 cb a5 3d a4 91 ca bd 9a 36 09 bc ef 5c 99 bd
       0.08095496 -0.0989106 -0.008374834 -0.07488429
000330 42 e9 3d bd 12 ae 7b 3d c9 07 f8 bd b5 70 6e 3c
       -0.04636503 0.061445303 -0.1211086 0.014553239
000340 5a 1c f7 3d bc 29 d9 bb 7a e9 02 be 78 29 1a be
       0.120659545 -0.0066272896 -0.12784377 -0.15054882
000350 9e e2 b4 bd 4f 7e 1b be c1 f1 df bd 83 5c dd 3d
       -0.08832286 -0.15184902 -0.10934783 0.10808661
000360 98 28 a6 bc c3 9b 51 3d df b0 2b bd c1 bd cb 3d
       -0.020283028 0.051173937 -0.041916724 0.09948302
000370 77 8b 50 3e 44 7b 0e 3e 2c 4d 58 3d 01 99 7e 3e
       0.20365702 0.1391421 0.05280797 0.24863054
000380 e0 3d 3e 3e ac 4d fd bb 34 8e e9 3d 5c cc f5 3d
       0.18578291 -0.0077302065 0.11404076 0.12001869
000390 14 c9 24 bd 73 43 6a 3c 65 73 dc bd 49 68 c9 3d
       -0.040230826 0.014298308 -0.10764197 0.09834344
0003a0 91 38 07 be 4c 80 81 3d f5 bf cf 38 c5 f5 62 3c
       -0.13205172 0.06323299 9.906284e-05 0.013852541
0003b0 03 6e 6d 3d 4c 54 0c be 44 14 0e be cf ad f5 bb
       0.057966243 -0.13704032 -0.13874918 -0.0074975262
0003c0 c4 24 1c 3e 6b 8b dc 3d e1 a2 91 bc 50 77 01 3e
       0.152484 0.10768779 -0.017777862 0.1264317
0003d0 3b a7 de bd 9b c8 bf bd 9a 4c 0c be d8 b5 5b 3d
       -0.108717404 -0.09364434 -0.13701096 0.053640217
0003e0 bf 0f 16 bd 35 5d ae bd 25 67 b0 3d 9d 6b 18 3e
       -0.03663611 -0.085138716 0.08613423 0.14884801
0003f0 5f 67 20 3d ce 81 90 3c a2 ff c0 3d 1a 78 f1 3c
       0.039161082 0.01764002 0.09423758 0.029476214

cnn.2.bias f4 [10]
000000 52 1c 1e 3e 8e 38 c9 3d fe 06 b9 bd 28 05 0b 3e
       0.15440491 0.0982524 -0.09034537 0.13576186
000010 eb 8f e0 3d b1 16 06 3e 55 07 56 bd cf d1 38 3d
       0.1096495 0.13094594 -0.052253086 0.045121964
000020 21 eb c4 bd b7 b5 3c 3e
       -0.0961516 0.18428694

mlp.0.weight f4 [10, 5760]
000000 50 ea 3a bb 21 32 ff 3a 6e 60 be bb c6 52 75 3c
       -0.0028521009 0.0019469896 -0.005809835 0.014973348
000010 b6 51 84 bb 60 ef 62 bb 60 dc 59 bb 43 20 af 3a
       -0.004038061 -0.0034627542 -0.0033242926 0.0013361055
000020 f7 22 9b 3c 73 13 cf bb e1 1a a5 3c 9c c1 84 3b
       0.018937571 -0.006319457 0.020154418 0.0040514003
000030 ac 64 25 3c 62 85 f0 ba d9 a0 2e 3b 33 33 46 3c
       0.010094803 -0.0018350298 0.0026646166 0.012097168
000040 4b 5a 2f 3c 85 e4 c0 bb 0f 13 c3 3b 28 fa 74 bb
       0.01070268 -0.0058866167 0.0059531997 -0.003738055
000050 55 5b 8c 3c 64 e6 a9 b9 eb 40 81 3c 91 75 9d bb
       0.017133394 -0.00032405846 0.015778026 -0.004805275
000060 52 f0 a0 b8 2d 4d af 3b 87 92 dc ba 79 af f5 3b
       -7.674158e-05 0.0053497762 -0.0016828337 0.0074977246
000070 9c f5 b4 bb 52 8f 6b 3b 54 26 2a 3c ef eb 8b b9
       -0.005522443 0.003594358 0.010385115 -0.0002668793
000080 e1 73 04 3c 5c de 00 3c 0a b6 cc 3a 1e 5a 2d 3b
       0.008084268 0.007865515 0.0015618217 0.002645142
000090 10 08 6f bb e6 d6 04 3c 25 06 99 3b f7 ed a0 3c
       -0.0036473311 0.008107876 0.004669922 0.01964472
0000a0 72 9f a1 3b 29 3b b6 3c 22 8a a7 3c 8f fe 9d 3c
       0.0049323374 0.022245007 0.020451609 0.019286422
0000b0 80 23 85 3c e5 fc 99 3b a9 9d 8e 3b c7 cc c5 3b
       0.01625228 0.004699337 0.0043522906 0.0060363743
0000c0 be 1d c7 3b 8c 31 0e 3c 3a fd f9 bb 84 3c 60 bb
       0.0060765436 0.008678805 -0.007629064 -0.0034215758
0000d0 2f c7 e0 3b 15 63 ac bb 08 cc 5b 3c c6 ea 49 bb
       0.006859682 -0.005260835 0.013415344 -0.0030810102
0000e0 63 1e a7 bb 76 4a 7b 3c e6 00 d4 bb 47 55 48 3c
       -0.005100058 0.015337577 -0.0064698337 0.012227363
0000f0 34 ea 0a 3c d7 08 d4 3b 41 e3 c3 3c 0c 70 63 3c
       0.00847869 0.0064707804 0.023912074 0.0138816945
000100 34 e6 a4 3c 4a af 33 3c 23 6c b8 3c 75 bc cc 3c
       0.0201293 0.010967085 0.022512501 0.024992207
000110 f2 b4 b9 3c 7b 71 d6 3b d4 09 da ba fa cd dc ba
       0.02266929 0.0065442896 -0.0016635009 -0.0016846054
000120 fc e6 53 3c e8 a0 73 3c b6 4a b1 bb c1 e6 03 bc
       0.012933489 0.014869906 -0.0054105176 -0.0080506215
000130 42 99 69 3c 55 f9 20 bc 91 34 d9 bb 95 65 23 3c
       0.014257731 -0.00982507 -0.006628581 0.0099729495
000140 d2 9a 9f 3b 5a d5 07 bc b3 49 c2 3b 16 c6 85 3b
       0.004870751 -0.008290613 0.005929196 0.0040824516
000150 41 f7 cf 3c e6 6e eb 3c 7e 95 0b 3d 7b 39 8a 3c
       0.025386455 0.028739404 0.034078114 0.016873112
000160 72 0f af 3c 74 bb 14 3c a0 53 b2 3c ec 20 8e 3c
       0.02136967 0.009077895 0.021768391 0.017349683
000170 69 f9 c5 3c 04 2d 0a b9 d1 57 a3 3c 5e 10 09 3c
       0.02416678 -0.00013177475 0.019939335 0.008365719
000180 b0 53 3d bb bb 48 1a 3c 63 a0 81 3c b0 82 14 3b
       -0.0028888993 0.009416754 0.015823549 0.0022660904
000190 5e 64 47 3c 24 e8 2e 3c 2e 3d 33 3c 9e 84 a4 bb
       0.0121699255 0.010675464 0.010939879 -0.005020692
0001a0 43 60 f9 3b 36 e3 9f 3a 2e 49 36 3b 3d e1 91 bb
       0.0076103522 0.0012198451 0.0027814615 -0.0044518993
0001b0 09 d4 24 bc f8 82 43 bc 1c 37 31 bc 89 8d 1f 3a
       -0.010060319 -0.011933081 -0.010816362 0.0006086459
0001c0 ae 24 af bb fa ce 45 3b 92 f9 85 3c d0 36 a7 3c
       -0.0053449487 0.0030183182 0.016354356 0.020411879
0001d0 0d 1a 55 3b bb 32 b2 3c c6 1e 1c 3b 54 43 15 3c
       0.0032516748 0.021752706 0.0023822053 0.009110291
0001e0 0b 9f 57 3c 5e 90 9c bb 33 73 0e bc ac 2d e8 3b
       0.013160477 -0.004777952 -0.008694458 0.0070855226
0001f0 50 05 30 39 53 e6 d8 3b cb 21 88 bb 66 6d 06 bc
       0.00016786647 0.0066192537 -0.004154419 -0.008204794
000200 e5 f6 bc ba 80 0b 95 3b ae b0 d9 bb 16 40 a3 bc
       -0.0014416842 0.00454849 -0.0066433763 -0.01992802
000210 4e d7 1c bd 81 03 3b bd 13 8d f1 bc 20 fe c6 bc
       -0.038291268 -0.04565764 -0.029486215 -0.024291098
000220 a9 48 21 bc 2b ce 25 bc 73 f9 76 3b 42 00 73 bb
       -0.009843984 -0.010119955 0.0037685304 -0.003707901
000230 d3 ce 59 3b 19 9d a5 3a c8 b1 84 3c ed 0b 28 3b
       0.003323485 0.001263532 0.016198054 0.0025641874
000240 80 c1 86 3c a9 64 83 3c 13 ee 7f b8 f3 68 bd 3b
       0.01644969 0.01603921 -6.101846e-05 0.005780333
000250 3b ba 55 3b 26 ba 41 3c 41 8d 29 3b 17 d9 ab bb
       0.0032612223 0.011824166 0.0025871547 -0.005244385
000260 de d2 b2 3b ed e7 25 bc 1b c8 a2 bc 43 02 01 bd
       0.0054572662 -0.010126096 -0.019870808 -0.031496298
000270 44 c9 1e bd f1 7a 1d bd db 99 50 bd 45 19 a3 bc
       -0.03876616 -0.038447324 -0.050927978 -0.01990951
000280 11 df c1 bc 64 ad 3c bc 21 35 0e bc 97 3f 80 bb
       -0.023665937 -0.011515949 -0.008679659 -0.0039138305
000290 c3 ad 12 bb c5 eb 95 bb 50 7a 42 3c 2a f3 03 3a
       -0.0022381402 -0.004575225 0.011869982 0.00050334877
0002a0 33 66 80 3c 81 91 25 3c b3 b3 df bb a9 4c 3d bb
       0.015673732 0.010105492 -0.0068268417 -0.0028884804
0002b0 1e cd e4 bb 79 de db ba 9c 96 b0 39 c9 63 80 3c
       -0.0069824597 -0.0016774676 0.0003368155 0.015672581
0002c0 ab 13 98 bb 61 ad 62 bc 2a 5c bc bc 34 d2 a3 bc
       -0.0046410165 -0.013835282 -0.022993166 -0.019997694
0002d0 e8 13 8a bc 6c 4d 23 bd b3 d5 6a bc c7 2c f8 bb
       -0.016855195 -0.039868757 -0.014333176 -0.0075736973
0002e0 be c3 9a 3b 01 7d 67 bc 97 77 66 bc 80 28 c0 bc
       0.0047230413 -0.014128924 -0.014066598 -0.023456812
0002f0 f4 20 56 bc 23 c0 11 bb e1 a4 47 3c 60 92 f3 39
       -0.01306938 -0.0022239767 0.012185306 0.0004645763
000300 85 e1 03 3c 7b cf 92 3b 7e e1 3f ba 88 ed e1 bb
       0.0080493735 0.0044803 -0.0007319673 -0.006894771
000310 c3 0a 08 bc ab 6a 3b 3a e2 af 8b 3b 7a dd 43 bc
       -0.008303347 0.00071493787 0.00426291 -0.01195466
000320 7b cc ae bb 9b bb 9b bc 09 0e 53 bc b7 2c 41 bc
       -0.0053344346 -0.019010356 -0.012881764 -0.011790446
000330 8a ba 96 bc ad 34 be bc 0e 73 45 bc b1 83 98 bc
       -0.018399496 -0.023218477 -0.012051357 -0.018617483
000340 86 7f 8b 38 4b 88 62 bc 45 2b ce bc d9 36 f8 bc
       6.6517896e-05 -0.01382644 -0.025167117 -0.03029959
000350 0b 85 0c bd fb 1a ac bc 5a 8a 12 3c a9 fa b1 bb
       -0.034306567 -0.021008959 0.008944118 -0.0054314923
000360 7e 68 75 3c 7d 9b b2 bb 6d 0d a5 ba ee 6a 8f bc
       0.014978526 -0.0054506646 -0.0012592502 -0.017507043
000370 e8 6a 00 bc f2 a5 a5 bc 73 e3 15 bc 97 de b8 bb
       -0.007837988 -0.02022073 -0.009148466 -0.005641769
000380 ee c9 65 bc ab a7 a2 bc 2e 1c 8e bc 1f ea 32 bc
       -0.014025195 -0.019855341 -0.017347421 -0.010920077
000390 ab ca cf bc 37 c1 43 bc b5 8e 8b bc 54 f4 a5 bc
       -0.025365194 -0.0119479215 -0.017035821 -0.020258106
0003a0 e5 3b b5 bc b2 83 b0 bc 85 a1 1d bc e4 c5 9d bc
       -0.022123287 -0.021547172 -0.009621029 -0.0192594
0003b0 64 19 42 bc bd 49 bf bb ab 9d 93 39 a7 e9 0a ba
       -0.011846874 -0.0058376477 0.00028155497 -0.0005299099
0003c0 09 e7 1d 3c bd 44 54 3b d0 7b 7e bc af af 8c bb
       0.009637603 0.0032389604 -0.015532449 -0.004293404
0003d0 67 cc bd bc 15 f2 8a bb c4 e8 ee bc 2e 32 db bc
       -0.023168756 -0.004240284 -0.029163726 -0.026757326
0003e0 53 38 ab bc e9 d5 e7 bc c1 2a b3 bc 40 e1 62 bc
       -0.02090088 -0.028300242 -0.021870973 -0.013847649
0003f0 f9 fc 8a bb 34 9d 38 bc 64 b7 15 bc e8 d4 5f bb
       -0.0042415825 -0.011267949 -0.009137962 -0.0034154002

mlp.0.bias f4 [10]
000000 76 f5 89 3c 5e 90 a0 b9 8d 8f 65 3c 01 27 14 3c
       0.016840678 -0.0003062514 0.014011276 0.009042502
000010 f4 e3 b5 bc 0a 87 1d 3c 2e 29 39 bc 0c 3c f8 3b
       -0.022203423 0.009614715 -0.011301322 0.0075755175
000020 83 06 92 bb 71 2d 72 3b
       -0.0044563427 0.0036953355

mlp.3.weight f4 [10, 10]
000000 ef 96 26 be 75 90 af 3d 20 74 75 3e 8b 84 b8 bd
       -0.16268514 0.08572475 0.2397008 -0.090096556
000010 43 33 6d 3e 41 52 07 3e 9b da 8b 3d 70 48 7e be
       0.23164086 0.13214971 0.06828805 -0.2483232
000020 38 ed 29 3e 08 9f d2 be e0 48 aa 3e db 2c 91 be
       0.16594398 -0.41136956 0.33258724 -0.28354535
000030 62 19 cc 3e cb a8 1c 3d 92 44 a3 be f9 24 ec be
       0.39863116 0.03824691 -0.31888252 -0.46121958
000040 e8 cd ae bd 6a e0 44 be 1b b2 90 3e 52 63 42 3d
       -0.08535367 -0.19226232 0.28260884 0.047458
000050 c6 2a be 3e 48 5f af 3e 48 93 d3 3c b1 96 17 3e
       0.3714201 0.3425238 0.025827065 0.14803578
000060 10 d3 89 3e f0 0f 33 be 6d 8d 81 be 37 a7 a8 bd
       0.2691884 -0.17486548 -0.25303212 -0.08235019
000070 f5 eb 98 3e d8 3e 16 be ea 93 33 3c 23 cd 7e 3d
       0.2986752 -0.1467241 0.010960558 0.062207352
000080 cd 62 a0 bd 64 52 a0 3e dd 55 e2 3e 64 2c c3 be
       -0.07831345 0.3131286 0.44206133 -0.38119805
000090 4e 57 32 3c 04 e1 06 3e 09 30 31 3e 2a 32 39 3e
       0.010885073 0.13171774 0.1730348 0.18085542
0000a0 e4 f6 fb 3d ad 4f 55 be 85 7a 4c be d8 d6 64 3d
       0.1230295 -0.20831175 -0.19968612 0.055868953
0000b0 9b 95 b2 be a9 25 9b 3e da 3e 52 be e5 3e 6c be
       -0.34879765 0.3030217 -0.20531788 -0.23070867
0000c0 0b d7 a4 bd 64 de 1b 3e c1 03 07 3e 2b b3 8c be
       -0.08048829 0.15221554 0.13185026 -0.27480444
0000d0 8e 46 9d 3e 4c c2 2b be 57 13 24 3d c0 45 ec 3d
       0.3071789 -0.16773337 0.040057506 0.11536741
0000e0 20 76 71 bd 74 c1 6f be 2a c1 bf be 22 c2 71 3d
       -0.058950543 -0.2341364 -0.3745206 0.05902303
0000f0 cc d4 cb 3e aa 04 bb 3c 5a 31 91 bc b6 c4 12 3e
       0.3981079 0.022829372 -0.017723728 0.14332852
000100 6b 68 a2 bd d2 54 d2 bd 08 23 af 3e fd fc 1d be
       -0.079300724 -0.102700844 0.34206414 -0.15428539
000110 c6 39 29 3d 29 7e 9a be dd 29 b9 be 90 80 d3 3e
       0.041314863 -0.30174378 -0.36164752 0.41309023
000120 38 05 a8 3a ce 6d 30 be 0c a2 8b be 35 d9 b6 bd
       0.0012818938 -0.17229387 -0.2727207 -0.08928148
000130 43 18 00 3c 93 c1 74 bd 71 92 84 3d 69 36 6a 3e
       0.007818284 -0.05975492 0.06473244 0.22872318
000140 e8 dd 86 bd e2 05 b3 be 03 ff 74 3e 2e 9e 98 be
       -0.06585294 -0.34965426 0.23925404 -0.29808182
000150 49 14 35 bd fb 49 44 3d 0f 42 f5 3d 8d fe 7c 3d
       -0.0442088 0.047922116 0.1197549 0.061766196
000160 32 58 ad 3e e4 50 2b bc da a1 d6 be 7b ce 70 bd
       0.3385635 -0.010456298 -0.41920358 -0.058790665
000170 93 aa 81 be 1e 96 01 be a3 b0 81 bd 52 22 1d 3e
       -0.2532545 -0.12654921 -0.06332519 0.15345123
000180 2e b6 54 be 1f 97 e6 3d 6b bc a9 3e 26 9c 8d 3e
       -0.20772621 0.11259293 0.33151564 0.27658194

mlp.3.bias f4 [10]
000000 a7 8e 59 be d8 02 3e bd 56 ba 6e bb 2c 71 90 bd
       -0.21245824 -0.04638943 -0.0036426983 -0.07052836
000010 c9 79 40 bd c1 5a 6c 3d 18 17 32 be 1a 18 37 3e
       -0.046991143 0.057703737 -0.17391622 0.17880288
000020 03 1e 4f be 26 17 a2 3e
       -0.20226292 0.31658286
